SEED: 0
Dueling(
  (fc_s): Linear(in_features=4, out_features=64, bias=True)
  (fc_v): Linear(in_features=64, out_features=32, bias=True)
  (out_v): Linear(in_features=32, out_features=1, bias=True)
  (fc_a): Linear(in_features=64, out_features=32, bias=True)
  (out_a): Linear(in_features=32, out_features=2, bias=True)
)
----------------------------------------------------------------
        Layer (type)               Output Shape         Param #
================================================================
            Linear-1                   [-1, 64]             320
            Linear-2                   [-1, 32]           2,080
            Linear-3                    [-1, 1]              33
            Linear-4                   [-1, 32]           2,080
            Linear-5                    [-1, 2]              66
================================================================
Total params: 4,579
Trainable params: 4,579
Non-trainable params: 0
----------------------------------------------------------------
Input size (MB): 0.00
Forward/backward pass size (MB): 0.00
Params size (MB): 0.02
Estimated Total Size (MB): 0.02
----------------------------------------------------------------

Episode:     1   Avg:   14.000   BestAvg:     -inf   σ:    0.000  |  Steps:       14   Reward:   14.000  |  ε: 0.9950  ⍺: 0.5000  Buffer:     14
…
